code/NN_models/global_model_deepNN.pth (torch, 3712 bytes, 6 tensors)

fc1.weight f4 [16, 4]
0	0x3e11fc40	0.14256382
1	0x3e1c7cd4	0.15281993
2	0xbef9f968	-0.48823094
3	0xbecda1c5	-0.40162483
4	0x3ec70134	0.38868105
5	0x3ed8f89b	0.4237717
6	0xbf126016	-0.57177866
7	0xbeed6a24	-0.4637004
8	0xbe91c6c0	-0.28471947
9	0xbe9ea2ca	-0.30983573
10	0x3e8dbf7f	0.27685162
11	0x3e69d0f6	0.22833619
12	0xbefce5b8	-0.49394011
13	0xbf090dd2	-0.53536713
14	0x3b55de5d	0.003263376
15	0x3b984117	0.004646431
16	0x3ddc8f91	0.107695706
17	0x3deed156	0.116610214
18	0xbf11173d	-0.56676084
19	0xbef096b2	-0.4698997
20	0xbc0db452	-0.008648949
21	0xbc497b68	-0.012297489
22	0xbf196f5e	-0.5993556
23	0xbef2f37e	-0.47451395
24	0x3e717ff0	0.2358396
25	0x3e86b14c	0.26307142
26	0x3d6fb82c	0.05852525
27	0x3cb4adb6	0.022055488
28	0xbea57b07	-0.32320425
29	0xbeba09a2	-0.36335474
30	0xbce2902c	-0.027656637
31	0xbcf463bc	-0.029832713
32	0xbede094f	-0.43366477
33	0xbeed9c31	-0.46408227
34	0xbdb87214	-0.09006134
35	0xbdbdbc53	-0.092644356
36	0xbe25c5bc	-0.16188711
37	0xbe312241	-0.17298223
38	0x3e261c77	0.16221796
39	0x3e00a820	0.12564135
40	0xbf002ce1	-0.5006848
41	0xbf0b1d50	-0.543416
42	0x3e84df42	0.25951582
43	0x3e55cfb3	0.20880012
44	0x3d1f4bc0	0.0388906
45	0x3d2a13c0	0.04152274
46	0xbeeaaf0c	-0.45836675
47	0xbebf8a16	-0.3741004
48	0xbf0933af	-0.5359449
49	0xbf13bcd8	-0.5771003
50	0xbd5583b8	-0.05212757
51	0xbd4a1111	-0.049332682
52	0x3e091ae0	0.13389158
53	0x3e1adb9e	0.1512284
54	0xbeaab226	-0.3333904
55	0xbe8f661e	-0.28007597
56	0x3e1173d5	0.14204343
57	0x3e1c6352	0.15272263
58	0xbe87b943	-0.2650853
59	0xbe63865a	-0.2221922
60	0xbe86fabd	-0.26363173
61	0xbe859444	-0.2608968
62	0xbe048081	-0.12939645
63	0xbde0386d	-0.10948262

fc1.bias f4 [16]
0	0xbe28b066	-0.1647354
1	0x3df30580	0.118662834
2	0x3e7cfd24	0.2470594
3	0xbf4d9e51	-0.80319697
4	0xbeefeee1	-0.46861938
5	0xbf67d942	-0.90565884
6	0x3f21d882	0.6322099
7	0x3f22ec8e	0.63642204
8	0xbf0982f4	-0.53715444
9	0x3eabc8c0	0.33551598
10	0xbe821409	-0.2540591
11	0xbf0bdbdc	-0.54632354
12	0xbf8ace70	-1.084425
13	0x3d8c6179	0.06854529
14	0x3eb2151d	0.34781733
15	0x3db36ee6	0.087613866

fc2.weight f4 [8, 16]
0	0x3eb1bc73	0.34714088
1	0xbf2146af	-0.6299848
2	0xbdf417c9	-0.11918599
3	0x3eb0f8df	0.34564874
4	0x3dff536d	0.12467084
5	0xbe7a1197	-0.24420772
6	0xbf4a6702	-0.7906343
7	0x3e4a90fc	0.1978187
8	0x3ed0ad58	0.4075725
9	0x3da7f37a	0.08200736
10	0x3f2ba2a1	0.67045027
11	0xbe2be288	-0.16785634
12	0x3f704452	0.9385425
13	0xbe92d0ac	-0.2867483
14	0xbd6f759b	-0.058461767
15	0x3bb77fae	0.0055999374
16	0xbe620ae9	-0.22074474
17	0x3e8b990b	0.272652
18	0x3c3e9255	0.011631568
19	0xbeb6279f	-0.35577103
20	0x3b108ab4	0.002205533
21	0xbf936518	-1.1515226
22	0x3e22c16e	0.158941
23	0x3e10e6b0	0.141505
24	0xbeb7344f	-0.35782096
25	0x3e6362ed	0.22205706
26	0xbc8e1792	-0.017345224
27	0xbee9d682	-0.4567147
28	0x3f12cb1d	0.57341176
29	0xbe2d17eb	-0.16903655
30	0xbcfbb588	-0.03072621
31	0x3db9d53e	0.09073876
32	0x3e1c7618	0.15279424
33	0xbea6ecea	-0.32602626
34	0x3eeb6218	0.45973277
35	0x3f1ac604	0.604584
36	0xbefd9162	-0.4952498
37	0xbead0222	-0.3379069
38	0xbea5de5b	-0.32396206
39	0x3daec9b4	0.085345656
40	0x3e6c90f8	0.23102176
41	0x3e5bb126	0.21454296
42	0x3e897b38	0.2685182
43	0xbf25e90e	-0.6480874
44	0x3fbd2383	1.4776462
45	0x3a8a01e9	0.0010529134
46	0xbde5736c	-0.112036556
47	0x3e4e7fea	0.20165983
48	0xbc741691	-0.014897958
49	0xbe4d0fcc	-0.20025557
50	0x3e3f3940	0.18674183
51	0x3f2eba9d	0.682535
52	0xbf21f132	-0.6325866
53	0xbf8ce142	-1.1006243
54	0x3da0eb68	0.078574
55	0x3ec96656	0.3933589
56	0x3f296aa5	0.6617835
57	0x3cdcaab3	0.026936864
58	0x3e108a13	0.14115171
59	0xbf252432	-0.64508355
60	0x3fe40f72	1.7817214
61	0xbe0a211a	-0.1348919
62	0xbe903442	-0.2816487
63	0x3ec3f92b	0.38276038
64	0x3e071f08	0.13195431
65	0x3cb17988	0.021664396
66	0xbe3ff7c2	-0.18746856
67	0x3c021842	0.007940354
68	0x3ef568fc	0.4793166
69	0x3faf0ca5	1.3675734
70	0xbf9982a4	-1.1992993
71	0x3cd22640	0.025653005
72	0x3e84d91e	0.25946897
73	0xbe4bdb7b	-0.19907944
74	0xbe294b59	-0.16532649
75	0x3efb0e2e	0.49034256
76	0xbece9058	-0.403445
77	0x3d67e53b	0.056615096
78	0xbdad8013	-0.08471694
79	0x3e22cbb5	0.1589802
80	0x3e4f7cba	0.20262423
81	0xbcd8d10e	-0.026466873
82	0xbe887146	-0.2664892
83	0xbf6ef42c	-0.93341327
84	0x3df4ecac	0.11959204
85	0x3f3f1f5e	0.7465724
86	0x3d732950	0.05936557
87	0x3c61062a	0.01373438
88	0x3d9f7c32	0.0778736
89	0xbea87b3a	-0.32906514
90	0xbe97a38c	-0.29616964
91	0x3dbf40c4	0.09338525
92	0xbfd52f51	-1.6655065
93	0x3eb1d1bd	0.3473033
94	0x3ec275f8	0.37980628
95	0x3ea78e6d	0.3272585
96	0xbe4d4290	-0.20044923
97	0xbe49d97c	-0.1971187
98	0xbe3e93a3	-0.18611006
99	0x3de2bb20	0.110708475
100	0x3dd74b99	0.10512466
101	0x3f067a4e	0.5253037
102	0xbe8faeac	-0.28062952
103	0xbdc7081e	-0.09718345
104	0xbe9e254f	-0.3088784
105	0xbdcb79a0	-0.099353075
106	0x3e1377ac	0.1440112
107	0xbcff7818	-0.031185195
108	0xbccf7242	-0.025323037
109	0xbed9ce4f	-0.42540213
110	0x3e097692	0.13424137
111	0xbdcf5c02	-0.10124971
112	0x3ee9af39	0.45641497
113	0x3e37cab2	0.17948416
114	0xbe963127	-0.29334375
115	0xbf4f3f32	-0.80955803
116	0x3edc03d2	0.42971665
117	0x3f700885	0.93763
118	0x3d914d4e	0.07094823
119	0x3e85683a	0.2605608
120	0x3df5939e	0.11991046
121	0xbe21f514	-0.15816146
122	0xbe9c5037	-0.3052995
123	0x3f46adfa	0.7760922
124	0xbfc4146e	-1.5318735
125	0x3e52cf3c	0.20586866
126	0x3d5b214e	0.05349856
127	0x3da04f4e	0.07827626

fc2.bias f4 [8]
0	0xbcbad284	-0.02280546
1	0x3e59bd2d	0.21263571
2	0x3db4b3d7	0.08823364
3	0x3e84bcd0	0.25925303
4	0xbe8283ac	-0.25491083
5	0x3e820db9	0.25401095
6	0xbcaf4599	-0.021395491
7	0x3e8b7016	0.27233952

fc3.weight f4 [2, 8]
0	0xbf294800	-0.6612549
1	0xbea91c47	-0.33029386
2	0xbf3511d4	-0.7073033
3	0xbf2453b8	-0.64190245
4	0x3fc3645f	1.5265006
5	0x3f3a8751	0.72862726
6	0xbeb860ac	-0.36011255
7	0x3f782bf8	0.9694209
8	0x3f299636	0.6624483
9	0x3ea2ccb2	0.31796795
10	0x3f33c373	0.70220107
11	0x3f273b6a	0.65325034
12	0xbfb5cb88	-1.4202738
13	0xbf37daca	-0.7181822
14	0x3ec8786a	0.3915437
15	0xbf78508f	-0.9699792

fc3.bias f4 [2]
0	0xbd86ad06	-0.0657597
1	0x3d796326	0.06088557
