code/NN_models/global_model_gru.pth (torch, 20179 bytes, 14 tensors)

gru.weight_ih_l0 f4 [48, 4]
00000000: c0b6 01bc 5aee 793e 765e d73e 7a43 d83e
00000010: f8a5 bd3d bb96 ccbd 9c00 bd3e 806b 8e3e
00000020: ce5c cc3e b2b4 c33d 3c95 223e a7f3 063d
00000030: 4805 d13e 3aad c43e c8e6 48be 784b edbd
00000040: b85f 9fbd 1db7 643b c49f 933e 7c13 bc3e
00000050: 0119 4f3e e548 943e 7e49 6c3e 3f2f 903e
00000060: 65b0 283e 8028 cd3e 0620 973e ec94 bb3e
00000070: beb5 043f 0d2c 403f f63c 673f a496 5a3f
00000080: 4415 fc3c 3acf 023e 108d ac3d 7920 71bd
00000090: 30fa e83e cc2c 9e3e 8690 a93c 1cbd 67bd
000000a0: d655 4c3e f313 9a3e dd79 143e 37e5 ef3d
000000b0: d903 ed3e 9d66 053f 5fb3 593f 4ed0 4c3f
000000c0: 71f3 e6bc fca7 1bbc 4132 e13d f2e7 963d
000000d0: 1e1a b63e ac04 df3e ea30 65bc e222 f7bd
000000e0: 81e7 7f3e b632 333e 3f7e 0cbe 4a28 bb3d
000000f0: 9e98 ba3e 5562 903e 62f9 0c3d 5e0a ca3d
00000100: 0c6a c93e 1454 433e 1c5c 7b3e 67ee 333f
00000110: 91b0 b53e aaa0 063f ca8b 6f3e beb6 663e
00000120: d8f4 a33d 6c03 ccbd c785 dd3e b8f6 993e
00000130: 2c4a e93e 4438 043f 8c85 0a3f 5a57 883e
00000140: d0e4 c23e 5bf5 f33e 1a85 e83e ee81 893d
00000150: e233 7d3f deef 923f de28 eb3e 4d43 173e
00000160: 0571 0d3f 9a78 233f ead9 213f 737e 9c3e
00000170: d81b 203f 86ff 563f e9b8 a43d dd28 a9bc
00000180: 6845 233f 8ee4 f93d 27f1 c13e 3813 883d
00000190: 42a6 183e f951 b53e a8f9 843e 7ecd 213e
000001a0: 0636 9b3e a05c 3e3f 5303 f63e 5dff 243e
000001b0: d781 2c3f b28d 303f 40a1 363f 609b 123f
000001c0: 11cf 01be f7f6 603d d670 423e 9f7f db3e
000001d0: c849 573f a3ed 8c3f e2b8 e93e 6d82 603e
000001e0: 66b3 8d3f 1a84 923f 30df 243e b712 dc3e
000001f0: a514 453f 91c2 733f 8cb8 363f be7a 133f
00000200: 87eb ed3d 78dc 193d 339b 6abe 9a80 25be
00000210: 7fbb e4bd 8dec 57be a4af c13e ea4d 9f3e
00000220: 7d70 a13e cefe 813e 0a10 29be 4a6b 31be
00000230: 5c33 b23e 6725 023f 17a2 9bbe 7103 43be
00000240: 637a 23bd 96d5 1abc 30c7 a63e 3e43 2b3e
00000250: 5859 633e d0d5 243e 0956 16be 9929 b7bd
00000260: 133a 413d 98fb 3b3d a979 f23e 79da df3e
00000270: 1bb0 9abe d73f 82be 2780 373e 2e4b 493e
00000280: a876 12bd 01fc 8f3d c4e9 81be 1eb6 09be
00000290: 18a3 9d3e 4f9f 8a3e 7884 a1be e5e9 91be
000002a0: 45ae 373e b2c8 893e 2cc9 e23b 42b3 e93d
000002b0: 2f59 643e 9673 873e 003b 93be 618a 44be
000002c0: ea3d 1abe 0a6f a0bd b4d4 843e e06c 543e
000002d0: ae74 b63e 5872 5c3e 9404 04be a52e 26be
000002e0: 6832 5d3d 35c2 103e 23af 76be b568 d13d
000002f0: 0645 72be b357 70be 30b5 8ebe 4623 5fbe
-0.007917106 0.2440733 0.42064255 0.4223898 0.09260172 -0.09989687 0.36914527 0.2781639
0.39914554 0.09555949 0.15877241 0.03294721 0.40824342 0.3841341 -0.19619286 -0.1158666
-0.07781929 0.0034899183 0.2883283 0.36733615 0.20224382 0.28961864 0.2307491 0.28161046
0.16473539 0.40069962 0.2951662 0.36637056 0.51839817 0.75067216 0.90327394 0.8538611
0.030771859 0.12774363 0.08425343 -0.05886886 0.45503378 0.30893552 0.020698797 -0.056576833
0.19954619 0.30093345 0.14499612 0.11713641 0.46291998 0.521097 0.85039324 0.8000535
-0.028192254 -0.0095005 0.10995913 0.07368459 0.355668 0.43558252 -0.013988713 -0.120672
0.24990655 0.17499813 -0.13720034 0.09138544 0.36444563 0.2820002 0.034417517 0.09865259
0.3933872 0.19075042 0.24546856 0.7028565 0.35486272 0.52588904 0.23393169 0.22530648
0.080056846 -0.0996159 0.43266127 0.30071044 0.455644 0.51648355 0.54110026 0.26629144
0.38065195 0.4764813 0.45414048 0.06714235 0.9890729 1.1479452 0.45929617 0.14771767
0.5525058 0.638559 0.63223135 0.30565223 0.62542486 0.8398365 0.08043081 -0.020649368
0.6377778 0.122017965 0.37879297 0.06644291 0.14907172 0.35414103 0.25971723 0.15801045
0.30314654 0.74360085 0.4804941 0.16113038 0.6738562 0.6896621 0.713398 0.57268333
-0.12676646 0.054923024 0.18988356 0.42870805 0.84096956 1.1010021 0.45648867 0.21924753
1.1070373 1.1446564 0.16100764 0.42983028 0.76984626 0.9521876 0.71375346 0.57609165
0.11617189 0.03756377 -0.22910766 -0.16162339 -0.111685745 -0.2108633 0.37829316 0.3111413
0.31531134 0.25389713 -0.16510025 -0.17326084 0.3480481 0.5083832 -0.30397102 -0.19044282
-0.03991164 -0.009450337 0.32573843 0.1672487 0.2220205 0.16097188 -0.14681257 -0.08943481
0.047174525 0.045894235 0.47358444 0.4372137 -0.30212483 -0.2543933 0.1791998 0.19657585
-0.03575769 0.07030488 -0.25373662 -0.13448378 0.30788493 0.27074668 -0.31546378 -0.2849876
0.17937572 0.2691093 0.006920954 0.11411144 0.22299646 0.26455373 -0.2875595 -0.19193412
-0.15062681 -0.07833679 0.2594353 0.20744658 0.35635895 0.21527994 -0.12892371 -0.16228731
0.05400315 0.14136584 -0.24090247 0.102250494 -0.23659143 -0.23470955 -0.2787261 -0.217908

gru.weight_hh_l0 f4 [48, 16]
00000000: a0ac e8bc 306f 20bd d0e0 143e fa28 8dbd
00000010: 8468 183d 4328 8fbd 823f 223d c006 14bb
00000020: 984c 0bbc 7adf da3d 141d 923c 6b4a 8f3d
00000030: 14dc 1f3d 68c0 4ebc 242b e2bd dc9c 203d
00000040: c072 acbb a808 f83c 601a 323b f80a 32bc
00000050: 2786 a7bd f886 02bd 861b 703d e5ad 05be
00000060: f012 c83b e011 be3c abe2 be3d d85e 073d
00000070: d878 fd3c beed c9bd cc7c 993c e081 d63c
00000080: 54ac ab3c 496f bfbd eebe 1fbd ee2d 6c3d
00000090: 90d1 763c a478 f73c 3018 973d 0885 223d
000000a0: ac91 9ebc eae2 aebd 6384 99bd b0e5 7ebc
000000b0: d083 6e3c a530 95bd 18e2 1cbc 172b a8bd
000000c0: 2f92 16be f05a 0a3e 70cb 433c f4d4 bb3c
000000d0: e80d 42bc d78d d8bd 5446 1dbd 76c0 5a3d
000000e0: 008e 6839 0cc7 cb3d 52c5 8c3d 5008 c73d
000000f0: d898 b93d 08e4 2fbd 9bf5 a93d 885f dcbc
00000100: 541c 03bd c04f eebb 4443 edbd d09c 6a3c
00000110: 20e3 b23b cefa 0bbe 14c2 f1bc 1c74 d73c
00000120: 4c7c 9cbc 421c 2a3d e903 d53d 8030 42bb
00000130: 924a b33d 007a 333a 8879 a93c ee53 953d
00000140: 40c9 bf3b c00f 993a 80fe a43a d230 6f3d
00000150: 8014 2a3d 44b1 e1bd 6616 a63d 0ec0 36bd
00000160: b585 b03d 5ab8 4c3d d8bf c33d 325c 443d
00000170: a885 863d b474 0cbd e79e e43d 826e 933d
00000180: 6b04 dc3d a0b8 b63c 3a2d 2cbe 809f 04ba
00000190: 22e5 8c3d 14a7 1d3d cce1 8bbd 8a90 1abd
000001a0: 0a90 0bbd 83ab 88bd f6dc 223d 006a 79bb
000001b0: 00f1 55bd 0af2 073d da2b 9dbd 586f a2bc
000001c0: 80c4 a63c 5a41 fe3d 5c50 be3c 9682 a0bd
000001d0: 892c 893d dcd4 7abd dc04 d1bc ed18 ec3d
000001e0: 480e 15bd 9763 a43d dc00 61bd de95 733d
000001f0: 80bb d03b 6b60 a13d 20d8 74bc 282b 01bd
00000200: 6e58 7d3d fc44 35bd 0dc5 873d 983e 703c
00000210: dab4 a5bd bc53 913c aed3 42bd 6c26 3a3e
00000220: c226 5a3d 3fcc 2b3e ccc4 abbd 34c6 eb3c
00000230: 7c9c 063d 8f8b 0f3e 404f aeba d4b1 e3bd
00000240: aa76 1a3d e0fc 8abc 40e3 42bd 5be0 88bd
00000250: 483f e1bc 0b2c 88bd 109e 93bc c05d cbba
00000260: fdd9 8cbd 82aa 11bd 384f 45bc 6a39 4ebd
00000270: 5a06 703d 22d3 183e 0195 aebd 4071 b0bc
00000280: f830 313e 0817 a83c 844e f03d 3efb 2abe
00000290: e4fd 373d b5d5 a23d 9cd2 08be 88e8 ecbc
000002a0: eceb 2e3d 7c50 b23c 95c1 973d 7479 13bd
000002b0: 090a cf3d 66f9 563d 456d 86bd fc0c 693d
000002c0: 7802 713c f729 edbd 3e6c 183d 2041 83bd
000002d0: ba00 66bd 704f 463d 5c0d 6ebd 5020 b33c
000002e0: fcf4 27bd cc3a 13be d8a8 213c 0106 c93d
000002f0: b7a6 a63d f0b5 213d 6844 413d 38a8 07bc
00000300: e4f9 ca3c 4796 83bd c235 743d 00dd a2bd
00000310: 1817 123c e87e 3c3e d889 093d 1a0a 02bd
00000320: 2001 803c 800b abbd 44f5 84bc 80df 243b
00000330: 3c4d d83d f0bc 9b3b 9c7e b33c 5d37 c0bd
00000340: 27f2 d2bd d627 343d f9d4 d9bd 5397 2f3e
00000350: c408 aa3d 72d8 8ebd c466 0a3e 002a 3ebc
00000360: 116f 933d 1fae 9cbd 543d e43c f0bd 07bc
00000370: d4eb 2f3d e22c 683d 7862 9e3c a050 4e3d
00000380: b539 ae3d 4cc2 1a3d e4fa 56bd 363e e93d
00000390: 04b1 e33d 70ac 84bd e0f0 0c3e 6354 823d
000003a0: 8099 71bd b87b 5cbd e0b4 9d3b f091 f2bc
000003b0: 00aa 8a3c f0ce d63c 009c ec3a 3d50 eebd
000003c0: 2fa2 b93d d8e8 da3c d215 60bd a0b5 6dbd
000003d0: 04cc 423d eadb cfbd 665d 083e 3898 a0bd
000003e0: 9050 82bb 9083 8a3c 878b b4bd d84c d03d
000003f0: c224 5cbd 020d 7fbd 55b9 b1bd 3364 95bd
-0.028402627 -0.039168537 0.14538884 -0.06892581 0.03720905 -0.06990101 0.039611347 -0.002258703
-0.008502148 0.10687156 0.017836131 0.06996616 0.039028242 -0.012619115 -0.11043385 0.039212093
-0.0052627027 0.030277565 0.0027176365 -0.010866873 -0.081798844 -0.031866997 0.05862 -0.13054617
0.006105773 0.023201883 0.09320577 0.033049434 0.030941412 -0.09859799 0.018736266 0.026184976
0.020956196 -0.09347398 -0.039000444 0.05766099 0.015064612 0.030208893 0.0737766 0.03967765
-0.019356571 -0.08539374 -0.07495954 -0.015557691 0.014557794 -0.07284669 -0.009575389 -0.08211344
-0.14704202 0.13511252 0.011950359 0.022928692 -0.011844136 -0.10573929 -0.03839715 0.0534062
0.00022178143 0.099500746 0.06873573 0.09718382 0.09062356 -0.042942077 0.08298799 -0.026901022
-0.032009438 -0.0072726905 -0.115850955 0.014319614 0.0054592043 -0.13669893 -0.029511489 0.026300482
-0.019102238 0.041530855 0.104011364 -0.002963096 0.087544575 0.00068464875 0.020687833 0.07291399
0.0058528483 0.0011677667 0.0012588054 0.058396168 0.041523457 -0.11020139 0.08109741 -0.04461675
0.086192526 0.0499805 0.09558076 0.047939487 0.06568462 -0.034290984 0.11163121 0.07198812
0.1074303 0.022304833 -0.16814128 -0.0005059168 0.06879641 0.038489416 -0.06830177 -0.0377355
-0.034072913 -0.06673338 0.039761506 -0.0038057566 -0.05223179 0.03318981 -0.0767438 -0.019828483
0.02035737 0.124148086 0.023231678 -0.07837407 0.066979475 -0.061238155 -0.025515012 0.11528192
-0.036390573 0.08026808 -0.05493246 0.059469096 0.006370008 0.078797184 -0.014944106 -0.031535298
0.06185191 -0.04425524 0.06629381 0.014663361 -0.08091135 0.017740123 -0.047565155 0.1817872
0.05325962 0.16777132 -0.083871454 0.028781034 0.03286408 0.14018081 -0.0013298765 -0.111179024
0.037710823 -0.016966283 -0.047580004 -0.066834174 -0.027495995 -0.066490255 -0.018019706 -0.001551561
-0.068775155 -0.035563 -0.012042813 -0.050347723 0.058599807 0.14924291 -0.08524514 -0.021538377
0.17303836 0.020518795 0.11733726 -0.16697404 0.044919863 0.07950918 -0.13361591 -0.028919473
0.04270546 0.021766894 0.0740997 -0.0360045 0.10109336 0.05248394 -0.0656381 0.05689715
0.014710061 -0.1158027 0.037212603 -0.06408906 -0.056153037 0.0484156 -0.05811821 0.021865994
-0.04100512 -0.14377898 0.009866916 0.09815598 0.08137267 0.03948015 0.047184378 -0.008279853
0.02477736 -0.064251475 0.05962158 -0.07952309 0.008916639 0.18407786 0.033578724 -0.031747915
0.015625536 -0.08351803 -0.016230233 0.002515763 0.10561606 0.0047527477 0.021910958 -0.0938556
-0.10300093 0.043983303 -0.106363244 0.1714757 0.08302453 -0.069748774 0.13515764 -0.011606693
0.071989186 -0.076503985 0.027861275 -0.008285031 0.042949513 0.05668343 0.019334063 0.05036986
0.085071005 0.037782952 -0.05248536 0.11388819 0.111177474 -0.06478202 0.13763762 0.06363752
-0.05898428 -0.053828925 0.0048128217 -0.029610604 0.016926765 0.026221722 0.0018051863 -0.11636398
0.09064137 0.026722357 -0.05470831 -0.05803454 0.047557846 -0.10149367 0.13316879 -0.078415334
-0.003976889 0.016908437 -0.08815675 0.10170907 -0.053745992 -0.062268265 -0.086779274 -0.07294502

gru.bias_ih_l0 f4 [48]
00000000: 8fe9 92bd 0c51 6e3c 464a 8cbc 7082 323d
00000010: 7fc0 833e e7d7 dfbe 983a 043f b72c 8ebf
00000020: 51c1 1a3e 12ea bdbd d224 253e 1844 4abf
00000030: 3845 03bd 3ef2 4b3c 42f7 ae3d 744d 183f
00000040: e852 ad3e f14e e1be aee3 b2be 870c 98be
00000050: 0bcc debe 65fb 3b3f a4c5 d0be 29a2 b43d
00000060: 0a61 8cbd 9043 bcbe 7076 dbbe 01d2 503d
00000070: e375 1d3c aa5e c93e 4a53 3d3f 98ef 053e
00000080: b392 4bbe e2db 663e 2b2e 553e 6416 863e
00000090: 9ec7 3b3e 6ebb 0b3e 583b d33e e359 f2bd
000000a0: 570e 24be cc49 a8bc a6d2 c43e 2ee5 973c
000000b0: 2fa1 393e 25b5 573e 1db1 783d b40d 16bf
-0.07173454 0.01454569 -0.01712526 0.043581426 0.257328 -0.43719408 0.51651907 -1.1107396
0.15112807 -0.09273161 0.16127327 -0.7901015 -0.032048434 0.012447892 0.085432544 0.59493184
0.33852315 -0.4400554 -0.3493933 -0.29697058 -0.43515047 0.7343047 -0.40775788 0.08819992
-0.06854446 -0.36770296 -0.42863798 0.050981525 0.009610626 0.39330035 0.73955214 0.13079679
-0.1988018 0.22544816 0.20818393 0.26188958 0.18337867 0.13645718 0.41256213 -0.11833551
-0.16021095 -0.020543002 0.38441962 0.018541899 0.18127893 0.21065195 0.060715783 -0.5861466

gru.bias_hh_l0 f4 [48]
00000000: f571 18be 8485 443d 975b 273d 5870 cebb
00000010: 207c 073e 9198 a4be abf2 f53e 63b1 9cbf
00000020: d76a eb3d a45e 13be e2c3 163e 409e 34bf
00000030: 6946 733d 2d2e cd3d 3a33 3e3e 1f5c 0e3f
00000040: 0542 903e c16b d4be 72df e5be 7ab9 49be
00000050: 6aea 92be 4566 223f ac5c b6be 5c0f e23c
00000060: 0592 98bd 36dd cdbd 30c9 80be 6840 643e
00000070: 15f3 46be 44dc 003f 9a10 473f 0821 443d
00000080: a269 83bd 1429 183e 9427 bb3d 05ca 833e
00000090: 32ac 823e b9ed b83d c8e0 4e3f fc00 08be
000000a0: 8ccc a5be fcab 653d 4821 923e a008 21bc
000000b0: 9e1c 813d 7608 1d3e d4c2 543e 22b0 0bbf
-0.14887221 0.047978893 0.04085883 -0.0063000135 0.13230944 -0.3214765 0.48036703 -1.2241634
0.114949875 -0.14391571 0.14723161 -0.7055397 0.05939332 0.10018573 0.18574229 0.55609316
0.2817537 -0.4148846 -0.44897038 -0.1969966 -0.2869447 0.634373 -0.35617578 0.027595215
-0.07449726 -0.10051958 -0.25153494 0.22290194 -0.19428666 0.503361 0.77759707 0.047883064
-0.06416632 0.1485942 0.09138408 0.25740066 0.25522 0.09029717 0.8081174 -0.13281626
-0.3238262 0.05607222 0.28541017 -0.0098287165 0.063042864 0.15335259 0.20777446 -0.5456563

gru.weight_ih_l1 f4 [48, 16]
00000000: d8e9 023e 1492 60bf 7e7e 9dbe 4ef8 80bf
00000010: 6851 b6be 8cc4 7e3e 0c50 0abf aefb df3e
00000020: ad98 493e dc6a 08bd a1c0 3dbe 97cd 78be
00000030: eff7 063d 9e58 90be b936 863e d8a3 ff3e
00000040: de4d 2e3e ac2c 06be 284d f1be cff6 62bf
00000050: 5600 1dbe a48c 79be 8b25 a0be b194 e73e
00000060: 692f 79be 7d7c a2be 0765 63be 1347 68be
00000070: f7c7 cabd 2c20 64be f903 f13d 1ea9 ee3d
00000080: a6f4 92bd 7a51 61be 0620 2c3e db65 e03e
00000090: 06a8 983d 8fb1 2fbe 89fd ddbc 41c2 06bf
000000a0: 1c9e 60bc 83d7 ca3e 7a63 2bbe ec81 983e
000000b0: 4a25 0f3d b022 003e e4f5 bb3b 37fb 413d
000000c0: 7111 983d 22bc 4e3e d292 153f f09b 353f
000000d0: 6d48 123f d6e2 f1bd 8eaf 223f 0614 84be
000000e0: aec1 66be e059 873c 864d 173f e4a4 87bd
000000f0: f1a9 693e 9ee3 013f 0dfb 81be 63b6 45bf
00000100: e03d 03bc cc53 17be 2c81 653e 6a07 3f3f
00000110: 8c5a 513e 24b7 bbbe d51b 08be 7e01 b1be
00000120: 002c 9b3d 24df 313f 2c02 10be de58 353e
00000130: 52cc a63b cc0b 8e3e a210 a7bc 3a84 10be
00000140: 39b1 8fbd c8c8 4abe 194c 01be 8f75 473d
00000150: bc5c 8e3d 0bd0 adbe 64b8 c3bc b627 95be
00000160: 7c6c 9cbd d620 0c3e 881a 13be 8ea9 5c3c
00000170: df0f 01be 1410 063d 8c1d 02be f75e 023e
00000180: 28e7 583b 6ade a03f 54ec 063f 6bd5 66bd
00000190: a4a0 1a3f 989a f6be ae4b 893f 6a98 4e3e
000001a0: cedf 94be 2431 1bbf 9190 533f f05b 12bf
000001b0: 1217 593e 6cb6 cc3e 28a1 f3bd ef65 a3bf
000001c0: 8c53 82be 1469 f83d 2bab f9be 2cd1 16bf
000001d0: 584b 853e 613e 813e 8a45 443e b6e9 ab3e
000001e0: 5ad6 ebbc b5e0 acbe d4a4 2f3d 76ea 65be
000001f0: b7fc cbbc 7263 11be 1a03 2cbe 6022 543e
00000200: c713 1cbf 8695 3ebe c48c c0bf a20b b4bf
00000210: 8801 933f 303f dbbe 15fd b03e 0a5d b7bf
00000220: 1016 a9bb 0b66 0fbf 4844 aabe 2221 ca3e
00000230: a5f6 003e b287 f93e 6a84 19bf 9019 153f
00000240: 5fe2 21be 3e0b a83d 98c2 11bf 55ed 2bbf
00000250: bfc8 603e 7868 6e3e eb48 ce3d 4e4e 713e
00000260: 1634 d1bd afaf 7bbe ac38 8fbd c25f 8bbe
00000270: 898e f5bd fba6 48be 088a b3bd caf5 1e3e
00000280: c134 57be fab2 95bd 4cb8 773e 416b 9e3f
00000290: 5adc 6c3e 5005 d03d 516c c83d 6a97 b5be
000002a0: 02bd e53b b0ba fd3e 0c18 443e c033 153f
000002b0: 990d 343e a2a2 7d3e 632d 813d 4075 443d
000002c0: 35dc 0dbf 5c20 603e 96c6 85bf 345a 44bf
000002d0: 16b4 683f 5966 f1be 263e 373f 0716 99bf
000002e0: 1f27 8f3b 92eb 41be 8d51 91bd 20ee 0c3e
000002f0: 62dd 703e d2b4 8c3d 1358 51bf 5c0b da3e
00000300: 46d6 ffbd 8a6c 7abe 2a5a 3f3e 85b9 273f
00000310: 7aa3 553e 16d9 9dbd ab76 efbc b651 55be
00000320: feac f33d 1a5c 073f 8d1c 07bc fe30 973e
00000330: 44ee f7bd 548a 1f3f d80b 09be 161f f33c
00000340: 7c76 2dbf 8ad0 353f 6bfd b73e f8a9 433f
00000350: 4827 c23f a251 593e e006 eb3f e30d a5be
00000360: 3a9b 37bf f2eb 463d 1ef3 5e3f ffca 92bd
00000370: 8785 673f 1704 5f3f d7b1 00be b1e2 f9bf
00000380: 8459 3d3e c6b6 40bd cd00 e7be acff a4bf
00000390: 761f f2be f8d3 20bc 2955 87be a1dc ec3d
000003a0: 5a1d 3c3e afe6 c1be f79c 01bf 92db d6be
000003b0: 61d0 76be 8ad1 3bbf 263e 2e3e 60c7 e73e
000003c0: 21b4 86be e262 253f 4c9e 0abe 07fb 4bbe
000003d0: e61a ad3e 8238 9abe 92f3 f33e 7122 c03d
000003e0: 7e31 cf3d 36cb 33bf 21ed 203e b651 6fbe
000003f0: debc f0bc dcfd c33d fcf0 12be b695 1ebe
0.12784517 -0.877229 -0.30760568 -1.0075777 -0.35608983 0.24879664 -0.5402839 0.43746704
0.19687147 -0.033305034 -0.18530513 -0.24297176 0.03295129 -0.2819261 0.26213625 0.4992969
0.17021891 -0.13102978 -0.47129178 -0.8865785 -0.1533216 -0.24370056 -0.31278643 0.4523063
-0.24334492 -0.31735602 -0.22206508 -0.22683363 -0.099014215 -0.22277898 0.11768336 0.1165335
-0.07175569 -0.22003737 0.16809091 0.4382771 0.07453923 -0.17157577 -0.027098434 -0.5264016
-0.013709571 0.39617547 -0.16737166 0.29786623 0.03494767 0.12513232 0.0057360996 0.047358718
0.07425202 0.20188954 0.58427155 0.70941067 0.5714176 -0.11810844 0.63549125 -0.25796527
-0.2253482 0.016522348 0.59102666 -0.06623247 0.22818734 0.5073794 -0.2538685 -0.77231425
-0.008010358 -0.1477806 0.22412556 0.7462069 0.20444697 -0.36663163 -0.13291867 -0.3457145
0.07576752 0.6948111 -0.14063329 0.17709681 0.005090275 0.27743375 -0.020393673 -0.1411294
-0.070162244 -0.19803154 -0.12626685 0.048696097 0.069512814 -0.33947787 -0.023891635 -0.2913186
-0.07637879 0.13684401 -0.1436559 0.013468159 -0.1260371 0.032730177 -0.12706584 0.12731539
0.0033096764 1.2567875 0.5270436 -0.056355875 0.6040137 -0.4816482 1.0726221 0.20175329
-0.29077 -0.6062186 0.82642466 -0.57171535 0.21200207 0.39982927 -0.118959725 -1.2765483
-0.25454366 0.12129417 -0.48763403 -0.5891292 0.26034045 0.25242904 0.19167152 0.33576745
-0.028788734 -0.33765188 0.0428818 -0.22452721 -0.024900777 -0.14198092 -0.16798058 0.20716238
-0.6096768 -0.18611726 -1.5042958 -1.406605 1.1484842 -0.42821646 0.34568086 -1.4325268
-0.0051601008 -0.5601508 -0.3325522 0.39478403 0.12594087 0.4873634 -0.5996767 0.5824213
-0.1580901 0.08205269 -0.5693755 -0.67159015 0.21951579 0.23282039 0.10072502 0.23565027
-0.10215013 -0.24578737 -0.06993231 -0.27221495 -0.11990077 -0.19594948 -0.08766562 0.15523449
-0.21016218 -0.07309528 0.24191397 1.2376481 0.23130932 0.10157263 0.09786285 -0.35467082
0.007011057 0.49556494 0.19149798 0.5828209 0.17583312 0.2476907 0.06307485 0.04796338
-0.55414134 0.21887344 -1.0451229 -0.7670014 0.9089979 -0.47148398 0.71579206 -1.1959847
0.0043686773 -0.18937519 -0.07095633 0.13762712 0.23521951 0.06870426 -0.81775016 0.42586792
-0.12492041 -0.24455467 0.18686739 0.65517455 0.20863143 -0.077074215 -0.02923139 -0.20831951
0.1189823 0.5287491 -0.008246553 0.29529566 -0.121059924 0.62320447 -0.13383424 0.029677909
-0.6775892 0.7102133 0.3593553 0.76431227 1.5168238 0.21222547 1.8361473 -0.32237157
-0.7172123 0.04856486 0.8708972 -0.07167625 0.9043812 0.87115616 -0.1256784 -1.9522306
0.18491179 -0.047049306 -0.45117798 -1.2890525 -0.47289628 -0.009816162 -0.2643216 0.11565519
0.18370572 -0.3787131 -0.50630134 -0.41964394 -0.24102928 -0.73366606 0.17015895 0.452693
-0.26309302 0.6460401 -0.13536948 -0.19919978 0.33809584 -0.30121237 0.47646767 0.09381569
0.10116862 -0.7023195 0.15715457 -0.23371014 -0.029386934 0.09569904 -0.1434974 -0.15486798

gru.weight_hh_l1 f4 [48, 16]
00000000: f886 983d 26a5 0b3d fe05 38bd d889 a73c
00000010: 686b 773c f5be f9bd 5e64 19be 728b 70bd
00000020: 4cde 453d 3c1a 9dbc e225 0cbd 95ce 943d
00000030: 6c79 843d cee5 303d 4823 7f3d 509d 9e3b
00000040: 0f8f 143e 5810 b33c 0080 11bc 9281 ed3d
00000050: 94bf b0bd 68f8 65bc 372c c9bd 4cf0 843c
00000060: 74eb 0b3d 1ebe a7bd 807e 18bc a0a9 c7bc
00000070: 484a c0bc 6de1 0f3e 3ccd eebd acb6 44bd
00000080: 4cf7 953d d5b1 31be 93d9 843d cec8 6d3d
00000090: 8b39 94bd 10d5 873b 9062 983b b7cf b4bd
000000a0: db0a 8cbd 340a 453d f74c b1bd f665 2f3d
000000b0: 0777 863d 9c24 063d 7a21 603d 70f9 7abc
000000c0: 3e49 403d c0bb fdba aba2 94bd 703d 90bc
000000d0: dccf b73c caa5 623d c0cf 5cbc f078 b93d
000000e0: b4a8 123e 545d 9d3d a7b7 89bd 0023 b8bd
000000f0: fa86 b63d 7c69 a8bc 4a84 7dbd fd91 973d
00000100: 7e9d aa3d ea3b 783d 88fd 43bc fabf 13bd
00000110: 6026 2c3c 1374 e13d 2e5e 8dbd 2e83 c8bd
00000120: f6ea 14bd 3e75 49bd 803b 64bb b835 0ebc
00000130: 640d 94bc c497 c33c 9f34 aabd b457 dfbd
00000140: 4208 7a3d 70ff 523c d50e 023e 60fd 93bb
00000150: c991 ad3d 4b8c f23d 0f26 aebd 7ae1 d9bd
00000160: b0df e13b 906b a0bb 35e8 93bd 048c 7d3d
00000170: cc89 003d 64f8 ba3c 5675 083d e219 2a3d
00000180: f0e1 17bc eae1 2f3d 7064 6cbc 8631 25bd
00000190: 414f a1bd b8b3 0dbd 3624 4e3d 45ee c4bd
000001a0: fead d9bd 48d2 bfbc 0000 ac36 f857 843c
000001b0: 4870 b93d 1711 9bbd 1493 253e fde8 bdbd
000001c0: 07e9 b93d cc4a be3c 5fb4 adbd b008 cabc
000001d0: 3930 823d 289a 52bd 90eb cc3d fc0f 1ebd
000001e0: 1ca4 ffbd 48c7 6bbc a9ff c7bd f050 263c
000001f0: c0db 76bc 956c 833d 504c a0bb b0b6 0a3d
00000200: 34b6 cebd 60c3 68bb 7645 833d 061b 5abd
00000210: 669d 6a3d 780f 20bd 78d9 dd3d a027 a03c
00000220: 283e 1b3d e046 e53d 59cb e13d e8e6 34bd
00000230: bc95 033e 6d27 a3bd 686a 0fbc 74d8 793d
00000240: 6054 ffbc 0d35 01be 3406 713d 619f 893d
00000250: d0e1 a23b 24a3 463d 88dd aa3c 58fe 8fbd
00000260: 6098 c3bd 08c1 4c3d e564 dabd d894 6cbd
00000270: 9cec babd 00ef 333c 0408 f33c a5cc f93d
00000280: fb43 85bd 70a0 563c f498 d53c 208d 4a3d
00000290: 4840 393d 8635 9c3d acee 24bd 7e92 24bd
000002a0: 24c9 fcbc 3210 8c3d 777b 8fbd 7c81 883c
000002b0: 3cf2 72bd 6768 82bd dafb 103d e4a6 9dbc
000002c0: 6404 223d 2834 1ebe 9417 e1bc 3793 263e
000002d0: aacd 123d bf6c f6bd ac98 39bd fe84 0bbe
000002e0: b506 e43d a0a2 5ebc cf32 84bd b870 b1bc
000002f0: 0f69 a1bd d1f2 8fbd 5059 2c3d d093 54bd
00000300: 250d 833d 4cbc 293e 043b b73c 301b 753c
00000310: db37 e83d 265b 4abd 23b8 bd3d 1755 dabd
00000320: e551 bdbd 9c55 673d a0af 06bb 3fdd f33d
00000330: a08e cc3d f801 94bd 34ad 0cbd ba27 5ebd
00000340: 90af 92bb 5aab 35bd 8752 d0bd 7453 033e
00000350: 2ef5 253d ace8 a0bc b480 f0bd a06f ec3c
00000360: fc32 b6bd f893 a63c 2aa2 41be e470 5bbd
00000370: 80fa c13c b63c 813d 44a4 e3bd 4219 4dbd
00000380: 5ee8 a9bd 4204 623d dab8 593d 5c32 bfbc
00000390: 3358 b9bd 99e8 bdbd d8b6 203c 628d 44bd
000003a0: 8d44 9fbd 5013 423d 7298 503d 9503 e33d
000003b0: 706e b23d 08d9 043e fbbb 99bd d4d9 a2bc
000003c0: 2039 a5bb fc15 1c3d a8d0 253e 7019 f63b
000003d0: b33a 94bd 07cc a3bd b247 1bbd 0356 083e
000003e0: f000 573c abb1 d33d ce46 89bd 084e a43c
000003f0: 40fe c4bd 52cc d6bd 268b 0c3d 0003 83b9
0.07447618 0.034093045 -0.04492759 0.020451471 0.015101291 -0.12194625 -0.14979693 -0.058726735
0.048307702 -0.019177549 -0.034215815 0.07265965 0.06468472 0.04318791 0.062289506 0.0048405305
0.14507698 0.02185838 -0.008880615 0.11596979 -0.08630291 -0.014036275 -0.098228864 0.016227864
0.034160092 -0.08190559 -0.009307504 -0.024372876 -0.02347292 0.14050837 -0.11660239 -0.048025772
0.07322559 -0.17352994 0.064868115 0.05805283 -0.07237538 0.004145272 0.0046504214 -0.08828681
-0.06838008 0.048105434 -0.08657258 0.042821847 0.065656714 0.032749757 0.054719426 -0.01531826
0.04694485 -0.0019358322 -0.07257589 -0.01760742 0.022437982 0.05533389 -0.013477266 0.0905627
0.14322168 0.076838166 -0.06724482 -0.08991051 0.089124635 -0.020558111 -0.06189374 0.07400892
0.083308205 0.060604014 -0.011962302 -0.036071755 0.010507196 0.110084675 -0.06902729 -0.097906455
-0.03635689 -0.049184076 -0.0034825504 -0.0086798 -0.018072791 0.023876078 -0.08310818 -0.109054
0.06104303 0.012878284 0.1270097 -0.0045162886 0.08475072 0.11843165 -0.08503353 -0.10638709
0.0068931207 -0.004895635 -0.07222024 0.061901107 0.031381413 0.02282352 0.033315025 0.04152859
-0.009270176 0.042940058 -0.014428243 -0.040330432 -0.078764446 -0.03459522 0.050327502 -0.09615759
-0.106288895 -0.0234157 5.1259995e-06 0.016155228 0.09054619 -0.07571619 0.16169387 -0.092729546
0.090776496 0.023229025 -0.08481669 -0.024662346 0.06356854 -0.051416546 0.100058675 -0.038589463
-0.12482473 -0.014390774 -0.0976556 0.010151133 -0.015067041 0.06417195 -0.0048919097 0.03386563
-0.10093346 -0.0035516843 0.06409733 -0.053248428 0.057279013 -0.039077252 0.108324945 0.019550145
0.037901074 0.11195159 0.110251136 -0.04416552 0.12850088 -0.07966504 -0.008753397 0.06099744
-0.031168163 -0.12617894 0.058843806 0.06719852 0.0049707666 0.048495427 0.020857587 -0.07030934
-0.095505476 0.049988776 -0.10663775 -0.057759136 -0.09127161 0.010982275 0.029666908 0.12197236
-0.06507107 0.013099775 0.02607391 0.049450994 0.04522732 0.07627396 -0.040266678 -0.04017877
-0.03085763 0.068390265 -0.07005971 0.016663305 -0.059313044 -0.063675694 0.035396434 -0.019244619
0.03955497 -0.15449584 -0.027477063 0.16267096 0.035840668 -0.120324604 -0.045311615 -0.13624951
0.11134092 -0.0135885775 -0.064550035 -0.021660194 -0.078813665 -0.070287354 0.042077363 -0.051898777
0.063989915 0.16575736 0.022367008 0.014960095 0.113387786 -0.049403332 0.09263637 -0.10660761
-0.09244136 0.056478128 -0.0020551458 0.11907434 0.09988141 -0.07226938 -0.034344867 -0.054237105
-0.004476495 -0.044352867 -0.10171991 0.12824804 0.040517025 -0.019642197 -0.11743298 0.02886182
-0.08896443 0.020334229 -0.18909517 -0.053574458 0.023679018 0.06310408 -0.111153156 -0.050072916
-0.08296274 0.05517984 0.053154804 -0.023339443 -0.09050026 -0.0927288 0.009809218 -0.047986396
-0.07776747 0.0473817 0.050926633 0.110846676 0.087124705 0.12973416 -0.075065576 -0.01987926
-0.00504221 0.038106903 0.16192877 0.0075103566 -0.072377585 -0.079978995 -0.03791017 0.13314061
0.013122782 0.10336622 -0.06702958 0.02005674 -0.09618807 -0.1048819 0.03431239 -0.00024988502

gru.bias_ih_l1 f4 [48]
00000000: 80ad 75be 1876 36be b26b a0be ef57 69bc
00000010: 43e3 05bd ad72 eebe 820f cd3d 0672 20bd
00000020: 373d 52c0 8ebf f2bd dccc 1fbd 6456 02c0
00000030: e3ad 31be 5fd7 e53d 1ea7 7ebe 08db a3bd
00000040: 88c1 4abe 7c2a 373d 2c88 20be 89db 093e
00000050: 9494 513d 8d04 bb3d 3a39 10bd f0e4 0ebe
00000060: 8cb3 efbd 8e3d 3cbc f06a 4d3e 4085 933d
00000070: a2c7 553b 6741 17be 744b b83e a806 ae3d
00000080: 0cbd 8cbd f67d c3bd 4a3e a5bd 8269 e5bd
00000090: ee4e 7dbd 1cef 00be 5642 6e3d 680b acbd
000000a0: c70f 873c 0a06 0b3d 053e fc3c 6782 423d
000000b0: 0e73 313d c360 c9bc 9d06 0dbe d876 08bd
-0.23991966 -0.17818487 -0.31332165 -0.014242156 -0.032687437 -0.46571866 0.100127235 -0.03917124
-3.2849863 -0.118529424 -0.03901373 -2.0365229 -0.17351489 0.112227194 -0.24868438 -0.08000761
-0.19800389 0.04471825 -0.15676945 0.13462652 0.051167086 0.09131727 -0.035210826 -0.1395452
-0.11704168 -0.011489285 0.20060325 0.0720315 0.003262021 -0.14771043 0.35995066 0.08497363
-0.06871995 -0.095455095 -0.08068521 -0.11201765 -0.06184285 -0.12591213 0.05816873 -0.08400613
0.016487015 0.033941306 0.030791292 0.047487643 0.043322615 -0.024582272 -0.13772054 -0.033316463

gru.bias_hh_l1 f4 [48]
00000000: 655c 86be 8502 7ebe 077f b4be 0f9c ee3d
00000010: 1cfe 28bd d071 f8be 53e9 593d 8ebd 11bd
00000020: 14bf 4cc0 aa31 d8bd 1a12 89bd 1ca0 04c0
00000030: 17f4 15be cbbc 863e f73b afbe 5c72 08be
00000040: 3c40 34be e817 193d 0447 10be 8be3 333e
00000050: c86d 2d3d f07b 393e 870e 65bd 6950 f8bb
00000060: d6b6 42bd 8e15 18bd bdb9 3d3d 9a6d cebc
00000070: 7706 99bd 7d07 8abd b12b 8f3e 089a 0cbe
00000080: 0acf 043e cbea 1e3e 07c0 733d 896f 46be
00000090: 7326 133e 8888 103d 2e29 cfbe 2219 aebd
000000a0: d08d 65bb 2243 3abe fcdd abbd 8e00 d939
000000b0: 8282 c23d e048 d5be 75d2 0e3e dd2f a33d
-0.26242366 -0.24805649 -0.35253164 0.116508596 -0.041257963 -0.48524332 0.05320103 -0.035581164
-3.1991625 -0.10556348 -0.06692906 -2.0722723 -0.14643894 0.26315913 -0.34225437 -0.13324875
-0.17602628 0.037376314 -0.1408959 0.1756727 0.042341024 0.18113685 -0.055922057 -0.007577945
-0.047537647 -0.03712993 0.046319712 -0.025198746 -0.07471936 -0.067397095 0.2796302 -0.13730633
0.12969604 0.15519254 0.059509303 -0.19378485 0.14370136 0.035286456 -0.40461105 -0.085008875
-0.0035027154 -0.18189672 -0.083919495 0.0004138988 0.09497549 -0.41657162 0.1394747 0.079681136

gru.weight_ih_l2 f4 [48, 16]
00000000: 47de 1dbe c8cd 20bd 6cef e73d 12e9 1abe
00000010: 0c7c 4bbc bcf6 183d bd93 58be 5359 ed3e
00000020: c2bc 673b 0b08 2f3c 1c1e 98be 4905 e8bd
00000030: 6738 813d c474 123d 988e 09bf 5a6a 39be
00000040: 33d3 833e 62d6 b43e 3846 a23d a415 d13e
00000050: 9cc5 1cbe 9295 af3d a65b 123e 5e04 ca3e
00000060: e72c ffbd 7c1c 30be fc16 a43d 1062 8a3e
00000070: 38e4 75be 2cff 9b3c 1e09 7e3d 570a b93e
00000080: ad38 683e 66ad a63d 3218 87be 2a41 26be
00000090: 861f 8dbe cd9f 9ebd db69 96bd 3406 acbe
000000a0: 622b 86bd 8e92 e8be 0bcd 653e 880f 2b3d
000000b0: f625 06be c200 e0bd 21ee 8a3d 80ef 383e
000000c0: 1f65 d3ba 2314 093e dcca 83be 0214 37be
000000d0: 49be 5cbe 854e 05be 6337 82be 7676 e9bd
000000e0: d9e0 e0bd f6f0 53be 6dcc ae3e 7ddf ac3e
000000f0: 78a5 1abe 7c83 85be 6a11 17be aab3 df3e
00000100: 1afa 1a3e 969b d93d b67b 163f c268 b03d
00000110: 3a11 16bf 7e5e 193f 7b26 ac3d c227 7e3f
00000120: ec8c 2ebf 2b97 563d d0f2 52bf ec20 ad3e
00000130: d1eb 11bf 9746 1f3e 923e 23bf 1015 b83e
00000140: 4cba 503e 8077 e43c 22db 0fbe 88e0 1cbe
00000150: 86fa 19be 31ec 27be e9da 88be c277 33bd
00000160: 2f2d 99bd 7378 4e3d b837 523e 1774 14bd
00000170: ec9d babd 76a0 f83d 9631 86bc f83e 4c3e
00000180: 7fe8 ccbc 800e c63e f0f6 dcbe 799a 583d
00000190: 3a73 fabe 750e 75be caa8 acb9 a29c 28be
000001a0: 056e b1be d9d7 85be 826d 833e 9100 8e3e
000001b0: da6a 83be 6bfe 28be 12f4 1abd 3e16 953e
000001c0: 9826 d23e 8871 e13c e1ee 813f 446e e53d
000001d0: 2103 3abf e5e7 673f b0be e33e eecd c93f
000001e0: b5b9 80bf e0a1 e93e fe94 cbbe 3d22 263f
000001f0: 58c7 b2bf f4a7 bc3e 2127 3ebe 24ab 4e3f
00000200: 4a4a a2be 3850 86be c07f 803e 695c 1cbe
00000210: 8615 a63e b773 f23d 34ef 98be a6ca 353e
00000220: 7d3c 593e c0d4 cd3d bf72 debe 2c63 0cbe
00000230: cda6 b73e 763e 84be 7d96 2bbf 9e84 60be
00000240: 04a5 d03d b4e0 f7bd 71cf 133e 3a8b 7dbd
00000250: 79dc 623e 624a ed3d 6614 793d e46f 3b3e
00000260: 2839 4f3e b2fa 7c3e b2ab 88be c682 80be
00000270: 8992 f43d 60e6 043e b621 d9be 097a cdbd
00000280: 07e1 b1bc 623c 8e3b ea02 313e 3264 7bbe
00000290: d31e c8be 88d1 ac3e 387d 8bbe 8f4c 183f
000002a0: 7d82 07bf b882 893d 4635 fdbe 2f35 c53e
000002b0: 96ba f4be 1c7d f1bc e938 1cbf f638 7a3e
000002c0: 0c00 9cb9 e2e3 4f3e 1786 78be ae6d f13d
000002d0: 1996 8bbe c6ac 1dbe 1c9f a53d 7706 b1be
000002e0: 2afb 9dbe 2435 f0be c45a 5c3e 3a96 983e
000002f0: 46f5 85be 835c 82bd 8c34 77be b7f7 863e
00000300: ed27 4abe a01a 3abe cd10 6c3e 04b1 66bd
00000310: ee2b fbbc d77f 783e 2d47 9f3b e67c d53e
00000320: 1160 5abe c607 f63d 4984 a3bd 2cde d0bd
00000330: 4297 023d 02f5 6f3d fd46 09bf 730b e0bd
00000340: 4803 9fbc 9218 c8bc cb42 10be 7ed7 1bbe
00000350: 2c54 bcbe e51a 61bd 3f94 633d 2bde afbd
00000360: 368b 4abe 8931 ab3c ad85 a73b ae4c 3c3e
00000370: 2123 60be 565d 1c3e b9ab d83d ec59 a63d
00000380: 742d 3cbd 24a3 773d 8007 6dbe dc9f 38be
00000390: 91e7 92be 96c5 cdbd 3796 bbbe 2317 7abe
000003a0: 7edf 3bbd 1a4b a0bd 73ef 8c3e 5b58 8d3e
000003b0: 0e15 65be 4c69 b73c 7c92 323e 5b63 853e
000003c0: 38db 6b3e eb07 2b3d dc9a 3f3f a2a4 cabd
000003d0: e596 4cbf 67d6 5e3f 427b c53c 58a9 b93f
000003e0: be28 6fbf 6632 a03e c42c 14bf 2b6e ef3e
000003f0: ff83 a5bf c1b8 4c3e 3ddf a9be 4819 323f
-0.15416823 -0.03925875 0.11324963 -0.15127972 -0.012419712 0.03734468 -0.21150108 0.4635721
0.003536031 0.01068307 -0.29710472 -0.11329133 0.06309586 0.035755888 -0.53733206 -0.18106976
0.2574707 0.3531981 0.079235494 0.40836823 -0.15309757 0.0857345 0.14292774 0.39456457
-0.12459736 -0.17198366 0.080121964 0.2702794 -0.2401284 0.019042574 0.062020414 0.361407
0.2267787 0.08138542 -0.26385647 -0.16235796 -0.27563113 -0.07745323 -0.07344409 -0.33598483
-0.06551243 -0.45424312 0.22441499 0.04176286 -0.13100418 -0.109376445 0.06783701 0.18060112
-0.0016128159 0.13386588 -0.25740707 -0.17878726 -0.21556963 -0.13018234 -0.25432882 -0.11399548
-0.10980386 -0.20697388 0.3414034 0.33764258 -0.15102184 -0.26076877 -0.14752737 0.4369176
0.15134469 0.10625379 0.5878252 0.08613731 -0.58620036 0.5990981 0.08405777 0.99279416
-0.6818378 0.05239026 -0.8240175 0.3381418 -0.5700045 0.15554272 -0.6376735 0.3595357
0.20383567 0.027889013 -0.14048436 -0.15320027 -0.15036973 -0.16398694 -0.26729515 -0.04381538
-0.07479321 0.050407838 0.20529068 -0.036243524 -0.091121525 0.121399805 -0.016381066 0.19945896
-0.025013207 0.38682938 -0.43157148 0.05288169 -0.48916036 -0.23931296 -0.00032932154 -0.16466
-0.3465425 -0.2614124 0.25669485 0.27734807 -0.2566746 -0.16503303 -0.03783042 0.29118532
0.4104507 0.027519956 1.0151025 0.11202672 -0.72661024 0.9058822 0.4448142 1.576597
-1.0056673 0.45631313 -0.3976211 0.64895993 -1.3967085 0.36846888 -0.18569614 0.8072989
-0.31697303 -0.26233077 0.25097466 -0.15269627 0.32438296 0.11838477 -0.29869998 0.17753085
0.2121448 0.100503445 -0.4344692 -0.13709706 0.35869446 -0.25828904 -0.670265 -0.2192559
0.10187724 -0.121034056 0.14434601 -0.061900355 0.22154416 0.11586453 0.06081047 0.18304402
0.20236647 0.24705008 -0.26693493 -0.25099772 0.11942012 0.12978506 -0.42408532 -0.10033042
-0.021713747 0.0043406943 0.17286268 -0.2454994 -0.39086017 0.3375361 -0.27243972 0.5949182
-0.52933484 0.06714386 -0.49454707 0.38517138 -0.47798604 -0.029478602 -0.6102434 0.24435791
-0.00029754674 0.20301774 -0.24269901 0.11788498 -0.27262953 -0.15397939 0.08086988 -0.34575245
-0.30855685 -0.46915543 0.21519 0.29802114 -0.2616369 -0.063653015 -0.24141139 0.26360866
-0.19741793 -0.18174219 0.23053284 -0.05632116 -0.030660596 0.24267517 0.0048607797 0.41696852
-0.21325709 0.120132014 -0.07984216 -0.10198626 0.031882532 0.058583267 -0.53623945 -0.10939684
-0.019410744 -0.024425779 -0.1408798 -0.15218922 -0.36782968 -0.05495729 0.0555613 -0.08587297
-0.19779667 0.020897644 0.005112371 0.18388626 -0.218884 0.1526998 0.105796285 0.0812262
-0.045941785 0.060458317 -0.23147392 -0.18029732 -0.28692296 -0.10047452 -0.36638042 -0.24422888
-0.045867436 -0.078268245 0.27526435 0.27606472 -0.22371313 0.022389077 0.17438692 0.26052365
0.23032844 0.041755598 0.7484567 -0.098946825 -0.79917747 0.870459 0.024106625 1.4504805
-0.9342154 0.3128845 -0.57880807 0.4676374 -1.2930907 0.19992353 -0.3317813 0.69569826

gru.weight_hh_l2 f4 [48, 16]
00000000: feb9 153e e10c 38be d872 573d 5af4 67bd
00000010: c0f0 e73b a81d 333d 585b 0ebe bd27 b43d
00000020: 4632 3dbd 80bf 8fba 6014 183b bfa4 84bd
00000030: 58f0 d63c 841c 29bd d49f af3c adcc 833d
00000040: 2021 ac3b 80c9 453b 36c2 2c3d b27b 8e3d
00000050: 75be ccbd 841c 7bbd 30ff 04bd 60c5 183b
00000060: aa01 08bd 4010 b43a 82b1 633d 794d acbd
00000070: 087f c4bd 5001 23bd d046 58bd bc2f 313d
00000080: 91f6 ae3d e8bc a23d a6d2 c9bd 47e4 ab3d
00000090: 92f8 7dbd 4c13 063e 4244 75bd ac1e 14bd
000000a0: 32e6 253d ce9d 13be 38ae 683d ea61 07bd
000000b0: fc3a fbbc ac3b 293d a897 793c 10e1 9bbb
000000c0: 31ac b73d d0dd d43c 3a79 1fbe c831 3ebd
000000d0: 7618 b83d a044 0bbb b9c9 f03d b4dc 093d
000000e0: d83c 58bc 085b 543d c069 6f3c e241 3abd
000000f0: 8888 b0bd b01e 04bd 5d33 9dbd 0cbc f83c
00000100: d025 a4bb 387d c63d 7d5b ef3d f04d 943d
00000110: 5e70 6ebd c93e d43d 0d0a d6bd 1204 833d
00000120: e029 08bc b84f 74bc df20 9bbd be56 9bbd
00000130: 3ca9 fe3c acd3 abbc 8228 64bd b82d a6bd
00000140: cae1 a63d 60da f4bc 206d 8fbb 3eea 1f3d
00000150: e0d8 36bb 64a6 8f3d 5476 04bd 9026 c73b
00000160: 0057 62ba e065 ff3c 1a4f 2c3d ee70 01bd
00000170: a789 a03d c07e e03d b892 c63c e4fe 393d
00000180: 5062 e83d 6c2f 033d 843b 00bd f0e0 d93b
00000190: a25e a13d 1091 2ebc bad4 b03d f4b4 173d
000001a0: 0014 8c3b d08c 143c b4d8 77bd 4404 02bd
000001b0: f0ae 343c c83e 12be e831 453c 1a1a 7bbd
000001c0: b417 c33c 7e15 af3d 469f 3ebd 90dc e53c
000001d0: c0be e03b 0031 fa3c 924c 133e 106f c3bc
000001e0: a058 473c a712 a73d b7f0 da3d 9217 eb3d
000001f0: 1bf1 8ebd 501c 54bd d03e cbbd 603e 0c3d
00000200: 9852 5cbc d719 9abd 45ed 813d 9e63 57bd
00000210: 293b 94bd 6e81 693d f8bf 69bd 2d59 9f3d
00000220: 2c07 863c 035f b4bd 0241 55bd 8665 753d
00000230: a647 32bd 79bc fe3d 86e7 b3bd f6c3 4f3d
00000240: e16c fabd a3d8 04be f05a 473e 986c 62bd
00000250: 6b52 a3bd 6055 51bc 6877 0c3c 6050 543c
00000260: 8859 873c a838 46bd 8cea e2bc 6f64 99bd
00000270: 0a0e 8e3d 9c7c cd3c 5c85 ce3c 3832 6cbc
00000280: 76c7 a53d 80c0 97bb 80e4 b03a 1469 bfbc
00000290: 7de2 99bd 9867 05be 30e8 07bc 1c0d 30bd
000002a0: c293 a33d d86b 153d b8bc 6bbc 206c 093e
000002b0: cf0c 84bd 6078 303c a092 fb3c 8ce2 cabc
000002c0: 4e71 403d 24ae 8dbd c8cb febc 94d7 263d
000002d0: cfd5 a13d c05d 253b cecb bb3d 8ba2 b43d
000002e0: 6013 483b 8004 e93c a330 e83d 1c96 a13d
000002f0: f10c 053e 0caf 663d 58cb b6bc 50b4 7bbc
00000300: f0ba d03b a272 bcbd c438 df3c 00ae aa3b
00000310: 0048 553c bc68 283d e9c5 86bd cc1c c7bc
00000320: 1c77 6bbd a4d3 903c af10 ce3d 88eb 033d
00000330: 5746 99bd 70e3 55bc 0021 fa39 d429 263e
00000340: f086 a03d 8199 90bd ca82 adbd c6a2 263e
00000350: 0e94 903d 90bb f1bc 5822 58bc 87c3 94bd
00000360: 7676 c73d f90c b53d 808c dd3c ab65 b2bd
00000370: 84b1 2b3e 8825 e5bc 26b6 ffbd ec0d 24bd
00000380: da4c f2bd 1c95 e03d 288c c43c c08a 6bbb
00000390: 0ae8 d13d 409f 823c cea0 883d b269 003e
000003a0: c72f e9bd 80d6 1d3e c05c 1abd 2c58 3c3d
000003b0: 64fd 993d 9690 fabd f076 26be 0a9f 0cbd
000003c0: ec23 853c 92f4 58bd 08f5 16be 0083 c6bc
000003d0: 80bd 5fbb 60ca 67bd d9dd ef3d 388c 103d
000003e0: 60b4 f8bb 3c4c c23d d53f f13d 8c1a afbd
000003f0: 407a e3bc 11b6 8ebd 826e 7d3d b057 30be
0.14621732 -0.17973663 0.052599758 -0.056629516 0.00707826 0.043729454 -0.13902032 0.08796642
-0.046190523 -0.0010967106 0.0023205504 -0.06476735 0.026237652 -0.04128696 0.021438517 0.06435523
0.0052529722 0.0030179918 0.0421774 0.06957187 -0.09997264 -0.06130649 -0.03246993 0.0023311004
-0.033204712 0.0013737753 0.055589207 -0.08413214 -0.09594542 -0.039796174 -0.052801907 0.043258414
0.085431226 0.07946187 -0.09854631 0.0839315 -0.062004633 0.13093299 -0.05987955 -0.036162063
0.040502734 -0.14415666 0.056806773 -0.033052363 -0.030667774 0.041316673 0.015233912 -0.004757054
0.0896839 0.025984675 -0.15573588 -0.046434194 0.089890406 -0.002125062 0.117572255 0.033657745
-0.0131981 0.051844627 0.014612615 -0.045472987 -0.08619791 -0.03225583 -0.076758124 0.030363105
-0.0050093904 0.09691852 0.11687372 0.07241428 -0.05821263 0.10363538 -0.10451136 0.06397261
-0.008310765 -0.014911585 -0.07574629 -0.07584904 0.031086557 -0.020974956 -0.055702694 -0.08114189
0.081485346 -0.029889286 -0.0043770224 0.03904175 -0.0027900264 0.07014158 -0.03233941 0.006077595
-0.000863418 0.031176507 0.042067625 -0.03160184 0.07838755 0.10961676 0.024239883 0.0454091
0.113468766 0.032027647 -0.03130676 0.006649129 0.07879378 -0.010654703 0.08634324 0.037037805
0.004274845 0.009066775 -0.0605094 -0.03174235 0.0110280365 -0.14281762 0.012035824 -0.06130419
0.023815013 0.08549021 -0.046538614 0.028059274 0.0068586767 0.030540943 0.14384678 -0.02385667
0.012167126 0.081578545 0.10690444 0.11479105 -0.06979581 -0.051784813 -0.0992409 0.034239173
-0.013447426 -0.0752446 0.06344084 -0.052585237 -0.072378464 0.0570082 -0.05706784 0.07780681
0.016360842 -0.088071845 -0.05206395 0.059911273 -0.04352536 0.12438292 -0.08784394 0.050723992
-0.12227798 -0.12973265 0.19468284 -0.055279344 -0.07974704 -0.012776703 0.008573391 0.012958616
0.016522184 -0.048393875 -0.027699731 -0.07489859 0.069362715 0.025083832 0.025210075 -0.01441627
0.08094685 -0.004631102 0.0013495833 -0.023365535 -0.07513902 -0.13027799 -0.008295104 -0.042981252
0.07987167 0.0364798 -0.014388256 0.13420153 -0.064477555 0.010770887 0.030709565 -0.02476623
0.046983056 -0.0691798 -0.03110303 0.040732935 0.07902109 0.0025232881 0.09169732 0.08820065
0.0030529127 0.028444529 0.11337402 0.07889959 0.12993218 0.05631928 -0.022313759 -0.015362814
0.006369941 -0.09201552 0.027248748 0.0052087307 0.013017654 0.041115507 -0.06580717 -0.024305724
-0.05748664 0.017679043 0.10061776 0.032207042 -0.074841194 -0.013054714 0.00047708303 0.16226894
0.07838237 -0.070605285 -0.08472212 0.1627303 0.07059489 -0.029508382 -0.013191782 -0.072638564
0.097393915 0.08840365 0.027044535 -0.08710798 0.16766936 -0.027971998 -0.12485914 -0.04005234
-0.118310645 0.1096594 0.023992613 -0.0035940856 0.10249336 0.015945077 0.06671296 0.1254032
-0.11386066 0.15413857 -0.03768611 0.045982525 0.075190336 -0.12234609 -0.16256309 -0.03433136
0.01625248 -0.052967615 -0.1474191 -0.024232388 -0.003414005 -0.056589484 0.11712236 0.035289973
-0.0075898618 0.09487197 0.11779753 -0.08549985 -0.027768254 -0.0696832 0.061872967 -0.1722095

gru.bias_ih_l2 f4 [48]
00000000: 5838 29be 3545 fdbe 3297 07bd 3de8 09be
00000010: ac22 cabf c70e 2bbe 5292 62bd 31ef 70c0
00000020: 2392 063e d0b0 3abe ef7d 50bf d684 103b
00000030: 79ed debe b0be abbe 478c 5bbd 020f 52c0
00000040: 0215 c9be ae2d 1ebe f856 4abe a45c 55be
00000050: e57b b5bd eeb3 97be 27c2 82be d735 c5be
00000060: 8e02 8bbe b046 45be 4020 1ebe 401a 70bd
00000070: 4f10 5abe fc50 8cbe ef5f 3dbe 0993 7cbe
00000080: fb24 96bc c9cf 28bd 5d2a 97bd 134e 32bd
00000090: c885 ab3c ae9b 0bbd d6f8 0bba 0347 51bc
000000a0: 13d5 43be 541a c2bc 36ae 3abd 890c 51bd
000000b0: 2002 30bd 6c21 6bbd 03f4 e03c 4fb8 83bd
-0.165254 -0.49466863 -0.033103175 -0.13467498 -1.5791831 -0.16704856 -0.055315323 -3.764599
0.13141684 -0.18231511 -0.8144216 0.0022051833 -0.43540552 -0.3354392 -0.053600576 -3.282166
-0.3927384 -0.15447113 -0.19759738 -0.20836121 -0.08861522 -0.29629463 -0.2553875 -0.3851764
-0.27150387 -0.19265246 -0.1544199 -0.058618784 -0.21295284 -0.27405536 -0.18493627 -0.24665464
-0.01832818 -0.041213784 -0.07381127 -0.04353149 0.020937815 -0.034084015 -0.00053395086 -0.012773278
-0.1912425 -0.023694195 -0.045576297 -0.051037345 -0.042970777 -0.05740492 0.027460104 -0.064316384

gru.bias_hh_l2 f4 [48]
00000000: 82dd 6bbe ed85 c0be 01e4 bc3d 6ac4 1ebe
00000010: c4cf d5bf 2dd7 81bc a6da 663b 1476 6ac0
00000020: 905d 2f3d e4e3 f4bd ffc1 49bf 1d2f f3bd
00000030: 297d bdbe 7ad5 96be ff84 57bc 374b 4cc0
00000040: 238f 74bd 881b 2ebe f420 13be 1d64 48be
00000050: cc76 4abe 061d 6bbe 6a07 b1be d391 9bbe
00000060: dec0 bcbe b94b c2bd d353 babd f374 dcbd
00000070: dfcd 0cbe 262c 57be 38c6 1dbe 8841 aabc
00000080: 2358 27bd 37c5 a2bc 6437 69be 7e14 e9bd
00000090: bc35 283b 4e66 5f3d 37cf 063e 5a0e 953a
000000a0: 6637 46be f190 6abd 8258 043b 20f2 10be
000000b0: d7b5 0c3d 506a 3cbd cb9b 593e 15c4 fdba
-0.23033717 -0.37602177 0.09223176 -0.15504614 -1.670403 -0.015849674 0.003522554 -3.663457
0.042813838 -0.11957529 -0.7881164 -0.118742205 -0.37009552 -0.29459745 -0.013154267 -3.1920907
-0.05970682 -0.1700269 -0.1436804 -0.1956944 -0.1977188 -0.2296029 -0.3457597 -0.30384693
-0.36865896 -0.09487099 -0.090980195 -0.10764494 -0.13750409 -0.21012935 -0.15407646 -0.0207832
-0.040855538 -0.01986943 -0.22775036 -0.11380862 0.0025666794 0.054540925 0.13164984 0.0011372075
-0.1935707 -0.057267133 0.0020194356 -0.14154863 0.034353103 -0.045999825 0.21250837 -0.0019360805

fc.weight f4 [2, 16]
00000000: 39a8 1fbf 5790 5a3e 3020 ac3e 0d70 273f
00000010: adad b0be 991b 09bf fecc d7be 7070 26bf
00000020: 9a82 15bf d0e7 27bf 7785 083f 999e 8d3d
00000030: 6a3d c43e 034a 103f da50 29bf 5f50 0d3f
00000040: 7878 0e3f 58c4 3dbe 360a fbbe 0ae3 23bf
00000050: c47e aa3e 3e5d fc3e 6927 913e 8fd7 413f
00000060: 8bd7 fa3e aefa 0c3f c4d6 15bf 886d 81be
00000070: fb4a 0bbf 8043 18bf 75b3 f33e 1e35 23bf
-0.6236606 0.21344124 0.33618307 0.6540535 -0.34507504 -0.53557736 -0.42148584 -0.65015316
-0.5840241 -0.6558809 0.5332865 0.06915016 0.38328105 0.5636293 -0.66138995 0.5520076
0.5565257 -0.1853193 -0.49031228 -0.6401831 0.3329984 0.49289888 0.2835038 0.7571954
0.4899257 0.55070007 -0.5853083 -0.25278878 -0.54411286 -0.59477997 0.47597852 -0.63752925

fc.bias f4 [2]
00000000: f559 b1bd da29 813d
-0.08659736 0.06306811
